models/English Model/chatbot_engmodel.tflite (tflite, 419024 bytes, 7 tensors)

sequential/lstm/Read_2/ReadVariableOp f4 [128]
0.1381451 0.12056628 0.1328193 0.110021405 0.17269027 0.13754497 0.13971752 0.1486201
0.08209903 0.099759616 0.39813793 0.15106799 0.2139172 0.12327255 0.23165154 0.118063144
0.21110423 0.101534314 0.1365721 0.12246465 0.2517638 0.21580368 0.2322826 0.11488102
0.3169874 0.23238885 0.16548924 0.2945899 0.4062482 0.10912275 0.18804684 0.17380713
1.022917 1.0310198 0.96098405 1.0359284 0.95543534 0.997369 0.99843556 1.0012788
1.0455791 1.0200825 1.0415515 1.0096806 1.0540848 1.0048188 0.94205904 0.95534945
1.0227159 1.0140381 1.0075858 1.0514873 1.0332358 0.99039406 0.9586373 1.0018402
1.0638809 0.99120665 0.99936783 1.0595512 0.9273764 1.0269572 1.0163168 1.0015705
-0.034049693 0.014935249 -0.048657965 -0.060713634 0.021062966 -0.008260638 -0.02198265 -0.02876484
-0.02885469 0.014795294 -0.029517911 -0.03008005 0.04726221 0.048289537 0.035240877 -0.024971852
-0.040673587 -0.016400073 -0.019720275 -0.0023999303 -0.016342364 -0.039927747 0.0867676 -0.021867493
-0.016666552 0.033853877 -0.025199568 0.011259599 0.078143016 -0.0014769564 0.028451117 0.005873602
0.2531323 0.12296672 0.23890056 0.16961353 0.25689632 0.18784802 0.23028433 0.24025504
0.15305217 0.13879703 0.612673 0.22634152 0.36830992 0.15218243 0.3671817 0.21646833
0.3488068 0.13815199 0.20363921 0.20830359 0.38780677 0.3112602 0.3757724 0.16568367
0.51267457 0.2455868 0.24954595 0.4304712 0.5036326 0.18888937 0.25904012 0.28875777
00000000: e975 0d3e 74eb f63d c801 083e e752 e13d
00000010: b8d5 303e 97d8 0c3e 1c12 0f3e de2f 183e
00000020: 8923 a83d c54e cc3d bcd8 cb3e 91b1 1a3e
00000030: 1c0d 5b3e 5276 fc3d 1036 6d3e 17cb f13d
00000040: b52b 583e 39f1 cf3d 8ed9 0b3e bfce fa3d
00000050: 2fe7 803e a4fb 5c3e 7ddb 6d3e bd46 eb3d
00000060: 2c4c a23e 58f7 6d3e 0376 293e 7dd4 963e
00000070: c4ff cf3e c07b df3d 5a8f 403e 7ffa 313e
00000080: f2ee 823f 75f8 833f 0d03 763f 4d99 843f
00000090: 6997 743f 9353 7f3f 7999 7f3f e729 803f
000000a0: 89d5 853f 1092 823f 8f51 853f 373d 813f
000000b0: 40ec 863f e79d 803f c82a 713f c891 743f
000000c0: 5be8 823f 00cc 813f 92f8 803f 2397 863f
000000d0: 1241 843f 778a 7d3f 4169 753f 4d3c 803f
000000e0: 402d 883f b8bf 7d3f 92d6 7f3f 609f 873f
000000f0: 8a68 6d3f 5573 833f ab16 823f 7633 803f
00000100: b177 0bbd fab2 743c 934d 47bd dcae 78bd
00000110: 3e8c ac3c a157 07bc f514 b4bc 3ea4 ebbc
00000120: ac60 ecbc f667 723c 8ccf f1bc 706a f6bc
00000130: 0596 413d 40cb 453d bd58 103d c591 ccbc
00000140: 5999 26bd 7259 86bc 6a8c a1bc 2648 1dbb
00000150: 6ce0 85bc 478b 23bd 36b3 b13d 7523 b3bc
00000160: 4b88 88bc 5daa 0a3d 536f cebc 2e7a 383c
00000170: 7209 a03d 6f96 c1ba 5112 e93c 5877 c03b
00000180: 8f9a 813e fad5 fb3d 59a2 743e 2baf 2d3e
00000190: ea87 833e 3b5b 403e a8cf 6b3e 6b05 763e
000001a0: b5b9 1c3e cf20 0e3e 23d8 1c3f 12c6 673e
000001b0: 1e93 bc3e b6d5 1b3e 3dff bb3e e0a9 5d3e
000001c0: ce96 b23e b777 0d3e cc86 503e 894d 553e
000001d0: 9c8e c63e 7f5d 9f3e 3d65 c03e fba8 293e
000001e0: a43e 033f 1b7b 7b3e f988 7f3e b966 dc3e
000001f0: 11ee 003f 376c 413e e8a0 843e 0fd8 933e

sequential/embedding/embedding_lookup f4 [536, 32]
-0.06519603 -0.05258192 0.061642803 -0.023440616 0.039281107 0.033407394 0.041430146 -0.028216373
-0.032438286 0.017884238 -0.052205283 0.035377253 -0.0019010258 0.021634374 -0.055509955 0.046861786
0.024298193 0.03675951 0.048954215 0.027593892 0.054934874 -0.063071586 0.0066241864 -0.0046414123
-0.026118709 -0.08299843 -0.040646326 -0.016382957 0.04487566 0.048739985 -0.042523324 0.018384688
0.080410436 0.13477328 0.11587537 0.16763562 -0.07855524 0.03510753 -0.1160357 -0.02953855
0.44535366 0.3430024 0.13450134 -0.24404614 0.40330932 0.11413043 0.22326198 -0.34008798
-0.22502643 -0.33129832 0.20695098 -0.28368607 -0.25190672 0.14462768 -0.31701627 0.32659894
0.22599374 0.24574403 0.67431486 -0.16780348 -0.2966534 -0.27886674 -0.34807634 0.40886888
-0.22396994 -0.006687543 -0.13250433 0.21012232 -0.14381844 0.04878689 -0.46331742 -0.24442902
0.42186263 0.018765546 0.31792042 -0.23631656 0.21912256 -0.088467464 0.24499473 -0.22246844
-0.20057549 -0.12701756 0.10240989 -0.31482944 0.0682212 0.24358498 -0.053651735 0.021236874
0.110642046 0.35055494 0.41511968 0.18094453 0.15708052 -0.02256238 0.3477866 -0.063009925
0.094857916 0.054986306 0.24100028 0.034621257 -0.09889267 0.042092938 0.093088 0.07984051
0.03261815 0.028758317 0.014316628 -0.24701726 0.12818432 -0.068858646 0.24691544 -0.09329233
0.08658933 0.019530449 0.17207412 0.07047053 -0.068588205 0.05679026 -0.05655837 -0.1864904
-0.010440838 -0.10052112 0.32500425 0.15329644 -0.108036496 -0.11180785 -0.21352378 0.19793382
0.08142163 0.20883197 0.11246177 0.20437244 -0.20762146 -0.1855875 0.41553622 -0.11818572
-0.0029801796 -0.30031055 0.1452368 -0.47803876 0.055379543 -0.11772345 0.393105 -0.28341857
-0.096671276 -0.22833689 -0.091303445 -0.48959514 -0.33938715 0.04387868 0.1376214 -0.029474175
0.06913343 -0.15703256 -0.023052653 -0.24264506 -0.20378262 -0.19222741 0.1728745 0.31858227
-0.26964995 -0.17447573 -0.06390105 0.087229975 0.22415423 -0.14049175 0.054291245 0.1285567
0.18744786 -0.09751693 -0.025440147 -0.014763646 -0.22846144 0.11868255 0.13160014 0.04121811
0.11069869 0.038042236 0.207938 -0.3797368 -0.15208392 -0.08210051 0.19245 -0.21869586
0.06422104 0.5554402 0.29881328 0.14379863 0.12768279 0.12694593 0.2724691 0.34835997
-0.04233126 0.24171197 -0.19384107 -0.06777494 -0.25271037 0.1331271 0.56601185 0.06802487
-0.04608971 0.0918362 0.20176558 -0.0862888 0.044275466 0.070778646 0.046366498 -0.30960014
-0.024253977 -0.30196422 0.37035713 -0.37292108 -0.2318179 0.16005997 -0.2652538 -0.029566599
0.4689846 0.09363966 -0.021299891 -0.18428332 -0.38503093 -0.2793179 -0.09374503 -0.1779969
-0.39706898 -0.23339401 -0.40865234 -0.21121563 0.05011893 0.00021747107 0.7585651 0.5910099
-0.07214125 0.30058265 0.32557103 -0.028470118 -0.4898087 0.4650604 0.05848986 0.0041999947
0.106064364 0.30356082 0.31556007 0.10475241 -0.30083284 -0.22254355 -0.0024060102 -0.17504139
0.20085852 0.021338178 0.0070963767 0.053526334 -0.018570125 0.2910484 0.11507008 0.09104643
00000000: 7f85 85bd 2460 57bd 2a7d 7c3d 8906 c0bc
00000010: 3ae5 203d 31d6 083d a8b2 293d 0626 e7bc
00000020: 02de 04bd f781 923c 35d5 55bd bde7 103d
00000030: d72b f9ba 923a b13c 685e 63bd 25f2 3f3d
00000040: 010d c73c 2491 163d 3784 483d 960c e23c
00000050: 6403 613d ad2b 81bd b40f d93b fd16 98bb
00000060: e7f6 d5bc 15fb a9bd c37c 26bd 8d35 86bc
00000070: 8acf 373d 94a3 473d f02c 2ebd 7c9b 963c
00000080: 3aae a43d 0202 0a3e 1150 ed3d aca8 2b3e
00000090: 92e1 a0bd eacc 0f3d 20a4 edbd d4fa f1bc
000000a0: 6505 e43e 039e af3e b8ba 093e 3be7 79be
000000b0: 8f7e ce3e 37bd e93d ca9e 643e 0320 aebe
000000c0: 546d 66be ef9f a9be f5ea 533e 4d3f 91be
000000d0: ebf9 80be 4719 143e f54f a2be fa37 a73e
000000e0: e76a 673e 53a4 7b3e e69f 2c3f add4 2bbe
000000f0: f4e2 97be 9fc7 8ebe 1037 b2be 4357 d13e
00000100: 6058 65be 2d23 dbbb 37af 07be 4e2a 573e
00000110: 2445 13be c3d4 473d f137 edbe 9a4b 7abe
00000120: 61fe d73e 34ba 993c 77c6 a23e f8fc 71be
00000130: aa61 603e 6e2e b5bd e6df 7a3e c4ce 63be
00000140: a963 4dbe e410 02be 47bc d13d 5331 a1be
00000150: 8eb7 8b3d 576e 793e ecc1 5bbd f4f8 ad3c
00000160: 4c98 e23d f07b b33e 918a d43e 8649 393e
00000170: b7d9 203e bed4 b8bc 1611 b23e 590b 81bd
00000180: de44 c23d 5239 613d c7c8 763e 05cf 0d3d
00000190: 3d88 cabd a569 2c3d eca4 be3d 6c83 a33d
000001a0: 9c9a 053d 9096 eb3c 4a90 6a3c 18f2 7cbe
000001b0: c042 033e c305 8dbd 67d7 7c3e 0d10 bfbd
000001c0: bf55 b13d 52fe 9f3c 3334 303e da52 903d
000001d0: f977 8cbd e79c 683d c0a9 67bd 57f7 3ebe
000001e0: 0c10 2bbc 04de cdbd f566 a63e bef9 1c3e
000001f0: 3d42 ddbd 84fb e4bd faa5 5abe 2aaf 4a3e
00000200: 62c0 a63d 0cd8 553e 5b52 e63d 0247 513e
00000210: b89a 54be a60a 3ebe 2ac1 d43e 5b0b f2bd
00000220: 1e4f 43bb 4ec2 99be f5b8 143e 7fc1 f4be
00000230: a9d5 623d fe18 f1bd 0f45 c93e 3d1c 91be
00000240: 97fb c5bd 25d1 69be 4dfd babd 37ac fabe
00000250: 27c4 adbe 21ba 333d a0ec 0c3e d373 f1bc
00000260: d495 8d3d 25cd 20be ebd8 bcbc f277 78be
00000270: 64ac 50be 43d7 44be 0306 313e 371d a33e
00000280: 8f0f 8abe c4a9 32be 8ede 82bd a1a5 b23d
00000290: b088 653e 12dd 0fbe 7f60 5e3d 5ea4 033e
000002a0: 55f2 3f3e f5b6 c7bd db67 d0bc 38e3 71bc
000002b0: ccf1 69be d60f f33d 30c2 063e 52d4 283d
000002c0: ffb5 e23d 2dd2 1b3d b3ed 543e dd6c c2be
000002d0: e3bb 1bbe 5024 a8bd 9d11 453e cff1 5fbe
000002e0: 5286 833d 5431 0e3f 0efe 983e f33f 133e
000002f0: 47bf 023e 1dfe 013e 1281 8b3e 3d5c b23e
00000300: 8b63 2dbd 5883 773e 467e 46be 96cd 8abd
00000310: 4163 81be 7852 083e 27e6 103f 9f50 8b3d
00000320: 90c8 3cbd 9e14 bc3d a39b 4e3e 2fb8 b0bd
00000330: 315a 353d 65f4 903d ccea 3d3d e983 9ebe
00000340: 47b0 c6bc 0e9b 9abe 739f bd3e 83ef bebe
00000350: ac61 6dbe c3e6 233e 59cf 87be a735 f2bc
00000360: c01e f03e 26c6 bf3d 1c7d aebc c4b4 3cbe
00000370: c622 c5be c102 8fbe 65fd bfbd d244 36be
00000380: a04c cbbe d7fe 6ebe e13a d1be e948 58be
00000390: 8249 4d3d f208 6439 5331 423f 6d4c 173f
000003a0: cbbe 93bd f8e5 993e 3fb1 a63e 2a3a e9bc
000003b0: 35c8 fabe 661c ee3e 1093 6f3d 1ca0 893b
000003c0: 4638 d93d 536c 9b3e 1791 a13e 6e88 d63d
000003d0: c306 9abe 75e2 63be 27ae 1dbb 0d3e 33be
000003e0: dbad 4d3e 67cd ae3c b988 e83b 6e3e 5b3d
000003f0: 6020 98bc 4c04 953e dda9 eb3d 8d76 ba3d

sequential/dense/BiasAdd/ReadVariableOp f4 [133]
0.0029073288 -0.0053784098 -0.0060422327 -0.01393003 0.009835203 0.030382141 -3.299999e-05 0.008904955
0.013691017 0.015263205 -0.009466194 0.0072673876 -0.015499434 -0.015045468 -9.802901e-05 -0.0045642136
-0.016532917 0.019106327 0.0055333194 0.0141526805 0.0014017631 -0.007768937 -0.005576141 0.016579052
-0.0136990575 0.009092984 0.0045052017 -0.012074311 -0.0037049393 0.0020002518 -0.01465747 -0.013080201
-0.0096001495 0.028137153 0.00431339 -0.006512752 0.010395889 0.01483099 -0.008500392 -0.00090998336
0.00060187594 0.00792364 -0.0066481284 -0.020020131 0.009237057 0.0022075744 -0.0052365414 0.008408548
-0.0040435786 -0.00024271499 -0.005698575 -0.0011467054 0.0152443955 -0.000952183 -0.019939248 -0.0092381565
-0.011626277 -0.009439531 -0.0052422434 -0.017566955 -0.012564948 -0.008573781 0.0033115398 -0.00816809
-0.017503018 -0.0134422295 -0.01419482 -0.009119957 -0.018913658 -0.031585682 -0.018840684 -0.006894213
-0.022663131 -0.026747834 -0.02195037 -0.007504252 -0.0021568667 -0.022162782 -0.032030106 -0.016249128
-0.025767636 -0.0049084355 0.005320763 -0.026491761 -0.014999249 -0.013164068 -0.018585358 -0.019317884
-0.006071528 0.004296055 0.013389989 -0.01677273 -0.0091932 -0.008887249 -0.006745031 -0.03141825
-0.0019050178 -0.008412617 -0.0024379632 -0.018886283 -0.019272804 0.017560728 -0.031779837 -0.014870495
-0.029930053 0.007927477 0.023841118 -0.022259053 -0.016750766 -0.015132848 -0.01357879 -0.01750093
0.05910173 -0.008911582 0.0076073534 -0.012306577 0.04309024 0.005707733 -0.008542067 0.041969106
-0.023356995 0.017022034 0.025667131 -0.019639364 -0.012034499 -0.021939864 0.004421206 0.029727545
-0.02122803 -0.009608108 0.04924066 -0.020977598 0.00833364
00000000: e288 3e3b 5f3d b0bb ecfd c5bb c83a 64bc
00000010: d523 213c f8e3 f83c 7869 0ab8 17e6 113c
00000020: 4a50 603c 8612 7a3c 1818 1bbc 4423 ee3b
00000030: 57f1 7dbc 4481 76bc ed94 cdb8 668f 95bb
00000040: 0a70 87bc df84 9c3c d950 b53b a5e0 673c
00000050: 5dbb b73a 9192 febb 10b8 b6bb cbd0 873c
00000060: 0372 60bc bdfa 143c 5fa0 933b 55d3 45bc
00000070: 91ce 72bb a816 033b e325 70bc 574e 56bc
00000080: f249 1dbc e37f e63c 5657 8d3b ec68 d5bb
00000090: 8553 2a3c aefd 723c 3a45 0bbc f38b 6eba
000000a0: 36c7 1d3a 28d2 013c 8bd8 d9bb 4201 a4bc
000000b0: 0657 173c f4ac 103b 4b97 abbb 02c4 093c
000000c0: ff7f 84bb 4f81 7eb9 1dbb babb 0c4d 96ba
000000d0: a1c3 793c eb9b 79ba a257 a3bc a35b 17bc
000000e0: 247c 3ebc 43a8 1abc 20c7 abbb 93e8 8fbc
000000f0: 36dd 4dbc 0b79 0cbc 6b06 593b 74d3 05bc
00000100: 7d62 8fbc cc3c 5cbc 6491 68bc df6b 15bc
00000110: d1f0 9abc fd5f 01bd c757 9abc dae8 e1bb
00000120: 08a8 b9bc 461e dbbc 43d1 b3bc 3ae6 f5bb
00000130: 385a 0dbb b98e b5bc 0032 03bd e41c 85bc
00000140: a616 d3bc f1d6 a0bb cc59 ae3b 4005 d9bc
00000150: 69bf 75bc 1aae 57bc 5240 98bc 8a40 9ebc
00000160: abf3 c6bb ecc5 8c3b af61 5b3c f766 89bc
00000170: 139f 16bc d39b 11bc 6c05 ddbb 6cb0 00bd
00000180: cab1 f9ba 13d5 09bc 3cc6 1fbb 68b7 9abc
00000190: 00e2 9dbc 84db 8f3c 932b 02bd 60a3 73bc
000001a0: df2f f5bc 40e2 013c 734e c33c 9e58 b6bc
000001b0: e738 89bc c4ef 77bc 9379 5ebc 1c5e 8fbc
000001c0: a814 723d e201 12bc 1b47 f93b 86a1 49bc
000001d0: 647f 303d ef07 bb3b 07f4 0bbc cce7 2b3d
000001e0: 2b57 bfbc cb71 8b3c e043 d23c bbe2 a0bc
000001f0: 592c 45bc 3bbb b3bc c4df 903b 2e87 f33c
00000200: 68e6 adbc 536b 1dbc 93b0 493d 36d9 abbc
00000210: d289 083c

sequential/dense/MatMul f4 [133, 576]
0.04950388 0.069366194 -0.032589983 0.07744632 -0.032261778 0.06419016 0.073511526 0.023918178
0.04077298 -0.051406503 0.020516204 0.017972955 -0.037334714 0.10185613 0.0027850273 -0.049285356
-0.056228474 0.11025936 -0.052689258 -0.09022025 0.040425263 -0.06548616 -0.04435988 0.0053259
-0.001446144 0.03189172 0.06226789 0.06625298 0.12562297 -0.06272994 0.00618012 -0.00089963374
-0.022534408 -0.019384693 -0.014238811 -0.012254383 0.11334961 0.040040992 -0.020024423 0.07852428
-0.0832415 -0.07910641 -0.035708215 -0.023853315 -0.044939827 0.07578564 0.024623444 -0.022116695
0.003093295 -0.06122772 0.004187559 -0.081886254 0.038723808 -0.05474728 -0.03891043 -0.02215518
0.04248797 0.023287013 -0.048562538 0.09362159 -0.027128186 -0.004688846 0.09068661 0.025700262
-0.07651151 -0.018650543 -0.07764954 0.09222348 -0.06935168 -0.06058113 0.033745807 -0.064771205
0.08532418 -0.020496376 0.08767094 -0.095423125 0.054011565 0.058745183 0.023211436 0.055367947
0.056086022 -0.020505017 0.032284398 0.024416257 -0.0337941 -0.03140574 -0.100718014 0.014824765
-0.08745417 -0.026205227 0.007213757 -0.03227235 0.014606366 0.06017442 -0.004198774 -0.043837406
-0.018299522 -0.059570637 0.08117325 0.080298655 0.04064786 -0.029027576 -0.003196298 -0.0018151188
-0.061055377 -0.0007104676 0.04455685 -0.07215978 0.012222017 -0.05161876 -0.025590621 0.04071736
0.04622332 -0.07644762 -0.075989746 -0.024992839 0.09535588 -0.06624002 0.013009542 -0.0055767177
-0.06760793 -0.022954142 -0.07482975 0.073542275 -0.0014815513 0.05815624 0.035543486 0.0436641
-0.08103023 0.0644975 0.056899905 0.012309657 0.033035785 0.061719164 0.032721076 0.025871048
0.026495915 0.023382675 -0.0022710038 0.028818265 0.037212808 0.0778075 0.02742374 0.022028832
-0.07566495 -0.03904467 -0.035801128 -0.030130262 0.0188849 -0.025988199 -0.082602926 -0.0007297506
-0.04860802 -0.039577954 0.010681292 0.031026836 0.0036712352 0.0027911817 0.03718074 0.096531205
0.06881839 0.02956849 0.026482506 -0.03668984 -0.017363308 -0.088266715 0.0011930865 0.07240434
-0.018076645 -0.093536906 0.0448505 -0.094350114 -0.020981101 -0.10659884 -0.08045884 -0.02948308
-0.11763997 -0.014342082 -0.06276393 -0.020373723 -0.07254076 0.050827604 0.046047315 0.0012380178
0.0057300054 0.019377902 -0.05674677 -0.08850922 0.019181944 -0.026289646 0.082401425 0.0774028
-0.08223334 -0.11136281 -0.056029778 -0.03786595 -0.029937698 -0.017189486 -0.007808132 0.0028729795
-0.056902446 0.034370176 0.00263337 0.041050605 -0.012290732 0.052044638 0.030401124 -0.105361246
0.065701574 -0.016522218 0.08351846 -0.05261574 0.0017297151 -0.050904095 0.0035283272 -0.057097763
-0.10796061 -0.0044654477 0.07777799 -0.06665453 -0.104256585 0.006450443 0.019753365 -0.025543049
0.07821664 0.04402886 0.05650376 0.080460295 0.07886454 -0.03449927 -0.056282017 0.046388682
0.029190654 -0.00033795214 0.031345032 -0.041401148 0.0026578063 0.077091746 0.054088537 -0.043845464
0.065941595 -0.047712255 0.026469776 0.0052482043 -0.04329814 -0.01679683 -0.03852446 0.04622056
-0.012406401 0.03303585 -0.063121185 0.024101123 -0.07662757 0.027898595 -0.010650377 -0.022850387
00000000: 95c4 4a3d dd0f 8e3d 137d 05bd 2d9c 9e3d
00000010: ed24 04bd 2176 833d 368d 963d 0ef0 c33c
00000020: 9101 273d a08f 52bd 9911 a83c 053c 933c
00000030: 49ec 18bd f299 d03d 0185 363b 71df 49bd
00000040: d44f 66bd a9cf e13d b1d0 57bd 65c5 b8bd
00000050: f694 253d 9c1d 86bd b5b2 35bd e384 ae3b
00000060: 8a8c bdba e4a0 023d 9d0c 7f3d a4af 873d
00000070: 4fa3 003e 8e78 80bd 9b82 ca3b 66d5 6bba
00000080: 149a b8bc a6cc 9ebc e749 69bc 9cc6 48bc
00000090: d723 e83d 0602 243d 420a a4bc 56d1 a03d
000000a0: 857a aabd 8b02 a2bd c742 12bd 0768 c3bc
000000b0: d312 38bd 8035 9b3d 1bb7 c93c 122e b5bc
000000c0: e1b8 4a3b ebc9 7abd ca37 893b fbb3 a7bd
000000d0: db9c 1e3d af3e 60bd 8b60 1fbd c87e b5bc
000000e0: de07 2e3d 68c4 be3c 83e9 46bd adbc bf3d
000000f0: ee3b debc e4a4 99bb e7b9 b93d 5b89 d23c
00000100: 11b2 9cbd 06c9 98bc b906 9fbd aadf bc3d
00000110: 4108 8ebd eb23 78bd 0b39 0a3d c4a6 84bd
00000120: 72be ae3d 04e8 a7bc d28c b33d 336d c3bd
00000130: 3b3b 5d3d ca9e 703d e925 be3c 80c9 623d
00000140: 75ba 653d 23fa a7bc a53c 043d 9a04 c83c
00000150: af6b 0abd 4ea3 00bd 3f45 cebd 92e3 723c
00000160: 2c1b b3bd 58ac d6bc 6161 ec3b 0330 04bd
00000170: 8a4f 6f3c 7479 763d df95 89bb da8e 33bd
00000180: e1e8 95bc 5700 74bd 293e a63d 9f73 a43d
00000190: 5f7e 263d 3dcb edbc fb78 51bb 48e9 edba
000001a0: 3415 7abd ac3e 3aba 3e81 363d 82c8 93bd
000001b0: db3e 483c 316e 53bd 6ca3 d1bc 3fc7 263d
000001c0: aa54 3d3d 9290 9cbd 83a0 9bbd c8bd ccbc
000001d0: f249 c33d d9a8 87bd f925 553c e6bc b6bb
000001e0: 0776 8abd 530a bcbc 5740 99bd 559d 963d
000001f0: 9d30 c2ba 3d35 6e3d 0c96 113d 21d9 323d
00000200: 2df3 a5bd 4417 843d e00f 693d 72ae 493c
00000210: 8850 073d 3ccd 7c3d 8906 063d 85ef d33c
00000220: f60d d93c 068d bf3c 1fd5 14bb 4814 ec3c
00000230: 756c 183d 8a59 9f3d c0a7 e03c cf75 b43c
00000240: 3af6 9abd 4eed 1fbd 34a4 12bd bdd3 f6bc
00000250: 81b4 9a3c 34e5 d4bc b92b a9bd bc4c 3fba
00000260: 3419 47bd 7e1c 22bd 9600 2f3c fe2b fe3c
00000270: 1b99 703b 42ec 363b d54a 183d 27b2 c53d
00000280: a8f0 8c3d 9e39 f23c d7f1 d83c 1648 16bd
00000290: 7f3d 8ebc 2ec5 b4bd 5761 9c3a ba48 943d
000002a0: 7915 94bc 4790 bfbd 28b5 373d a23a c1bd
000002b0: 8fe0 abbc 7e50 dabd 9bc7 a4bd 8086 f1bc
000002c0: 39ed f0bd 0dfb 6abc 608a 80bd cbe6 a6bc
000002d0: 4090 94bd 9b30 503d 1c9c 3c3d fc44 a23a
000002e0: c5c2 bb3b 68be 9e3c 4d6f 68bd 5244 b5bd
000002f0: 7423 9d3c 625d d7bc 14c2 a83d 5c85 9e3d
00000300: f469 a8bd 2f12 e4bd 7b7f 65bd 5419 1bbd
00000310: e73f f5bc f7d0 8cbc 5cdb ffbb 9948 3c3b
00000320: 8a12 69bd bec7 0c3d 9e94 2c3b ae24 283d
00000330: 115f 49bc c22c 553d c70b f93c a3c7 d7bd
00000340: 8c8e 863d 9a59 87bc ba0b ab3d 9a83 57bd
00000350: 9cb7 e23a d080 50bd 823b 673b 58df 69bd
00000360: 741a ddbd e452 92bb 114a 9f3d 2c82 88bd
00000370: 7a84 d5bd 3d5e d33b cfd1 a13c a83f d1bc
00000380: 0c30 a03d 9b57 343d 7d70 673d 5ec8 a43d
00000390: bb83 a13d 1b4f 0dbd f987 66bd 0f02 3e3d
000003a0: 3d21 ef3c 2b2f b1b9 a663 003d 4094 29bd
000003b0: 972e 2e3b 47e2 9d3d f18b 5d3d 4d97 33bd
000003c0: 630c 873d ed6d 43bd 25d7 d83c 21f9 ab3b
000003d0: 6459 31bd 8199 89bc d3cb 1dbd c551 3d3d
000003e0: 3844 4bbc 9950 073d ae45 81bd b86f c53c
000003f0: eaee 9cbd 988b e43c eb7e 2ebc bc30 bbbc

sequential/lstm/Read_2/ReadVariableOp1 f4 [128]
0.1381451 0.12056628 0.1328193 0.110021405 0.17269027 0.13754497 0.13971752 0.1486201
0.08209903 0.099759616 0.39813793 0.15106799 0.2139172 0.12327255 0.23165154 0.118063144
0.21110423 0.101534314 0.1365721 0.12246465 0.2517638 0.21580368 0.2322826 0.11488102
0.3169874 0.23238885 0.16548924 0.2945899 0.4062482 0.10912275 0.18804684 0.17380713
1.022917 1.0310198 0.96098405 1.0359284 0.95543534 0.997369 0.99843556 1.0012788
1.0455791 1.0200825 1.0415515 1.0096806 1.0540848 1.0048188 0.94205904 0.95534945
1.0227159 1.0140381 1.0075858 1.0514873 1.0332358 0.99039406 0.9586373 1.0018402
1.0638809 0.99120665 0.99936783 1.0595512 0.9273764 1.0269572 1.0163168 1.0015705
-0.034049693 0.014935249 -0.048657965 -0.060713634 0.021062966 -0.008260638 -0.02198265 -0.02876484
-0.02885469 0.014795294 -0.029517911 -0.03008005 0.04726221 0.048289537 0.035240877 -0.024971852
-0.040673587 -0.016400073 -0.019720275 -0.0023999303 -0.016342364 -0.039927747 0.0867676 -0.021867493
-0.016666552 0.033853877 -0.025199568 0.011259599 0.078143016 -0.0014769564 0.028451117 0.005873602
0.2531323 0.12296672 0.23890056 0.16961353 0.25689632 0.18784802 0.23028433 0.24025504
0.15305217 0.13879703 0.612673 0.22634152 0.36830992 0.15218243 0.3671817 0.21646833
0.3488068 0.13815199 0.20363921 0.20830359 0.38780677 0.3112602 0.3757724 0.16568367
0.51267457 0.2455868 0.24954595 0.4304712 0.5036326 0.18888937 0.25904012 0.28875777
00000000: e975 0d3e 74eb f63d c801 083e e752 e13d
00000010: b8d5 303e 97d8 0c3e 1c12 0f3e de2f 183e
00000020: 8923 a83d c54e cc3d bcd8 cb3e 91b1 1a3e
00000030: 1c0d 5b3e 5276 fc3d 1036 6d3e 17cb f13d
00000040: b52b 583e 39f1 cf3d 8ed9 0b3e bfce fa3d
00000050: 2fe7 803e a4fb 5c3e 7ddb 6d3e bd46 eb3d
00000060: 2c4c a23e 58f7 6d3e 0376 293e 7dd4 963e
00000070: c4ff cf3e c07b df3d 5a8f 403e 7ffa 313e
00000080: f2ee 823f 75f8 833f 0d03 763f 4d99 843f
00000090: 6997 743f 9353 7f3f 7999 7f3f e729 803f
000000a0: 89d5 853f 1092 823f 8f51 853f 373d 813f
000000b0: 40ec 863f e79d 803f c82a 713f c891 743f
000000c0: 5be8 823f 00cc 813f 92f8 803f 2397 863f
000000d0: 1241 843f 778a 7d3f 4169 753f 4d3c 803f
000000e0: 402d 883f b8bf 7d3f 92d6 7f3f 609f 873f
000000f0: 8a68 6d3f 5573 833f ab16 823f 7633 803f
00000100: b177 0bbd fab2 743c 934d 47bd dcae 78bd
00000110: 3e8c ac3c a157 07bc f514 b4bc 3ea4 ebbc
00000120: ac60 ecbc f667 723c 8ccf f1bc 706a f6bc
00000130: 0596 413d 40cb 453d bd58 103d c591 ccbc
00000140: 5999 26bd 7259 86bc 6a8c a1bc 2648 1dbb
00000150: 6ce0 85bc 478b 23bd 36b3 b13d 7523 b3bc
00000160: 4b88 88bc 5daa 0a3d 536f cebc 2e7a 383c
00000170: 7209 a03d 6f96 c1ba 5112 e93c 5877 c03b
00000180: 8f9a 813e fad5 fb3d 59a2 743e 2baf 2d3e
00000190: ea87 833e 3b5b 403e a8cf 6b3e 6b05 763e
000001a0: b5b9 1c3e cf20 0e3e 23d8 1c3f 12c6 673e
000001b0: 1e93 bc3e b6d5 1b3e 3dff bb3e e0a9 5d3e
000001c0: ce96 b23e b777 0d3e cc86 503e 894d 553e
000001d0: 9c8e c63e 7f5d 9f3e 3d65 c03e fba8 293e
000001e0: a43e 033f 1b7b 7b3e f988 7f3e b966 dc3e
000001f0: 11ee 003f 376c 413e e8a0 843e 0fd8 933e

while/MatMul_11 f4 [128, 32]
0.05699615 0.39220533 -0.01788631 0.43147364 -0.013615583 0.00088808395 -0.016485887 0.2591415
0.16856962 -0.34754285 0.4764634 0.09988036 0.033584293 -0.08418592 0.3269685 -0.14884172
0.1686323 0.13161394 0.12791835 0.32147512 0.39317688 0.05687971 0.70549953 0.64840436
-0.39268118 0.64787894 0.23485214 -0.605313 0.600938 0.37558684 -0.19157399 -0.15903
0.009159728 -0.050622124 -0.046739787 0.121658556 -0.021980617 0.07344662 -0.11020082 0.08008222
0.20845439 -0.18069048 0.19188823 0.16609542 0.061373983 0.034712054 0.30849323 0.01274266
0.2557733 0.02280647 0.1245084 0.21778534 0.26557496 -0.063539505 0.3967241 0.15243854
-0.30590442 0.65406615 0.14550702 -0.24711022 0.5481244 -0.011046975 0.059170436 -0.08615426
-0.07079255 0.31391275 0.086111 0.205882 -0.09820073 -0.004027387 0.09463351 0.103392854
0.15809299 -0.3770825 0.48644048 0.12549539 -0.116584055 -0.25318736 0.4514092 -0.10918915
0.43613443 0.3273073 -0.03743028 0.2957258 0.39760396 -0.027132142 0.57979465 0.5644658
-0.4098593 0.71169204 0.27172515 -0.55855536 0.6253886 0.31736064 -0.08643851 -0.087759666
0.017093418 0.18544236 0.039722543 0.18165676 0.05569406 -0.080197796 -0.10182853 0.07002482
0.26796934 -0.16394807 0.24801609 -0.0017183538 -0.21069704 0.060881257 0.30419227 -0.09031867
0.17583828 0.010847215 -0.0107408855 0.25154486 0.05637831 -0.033821255 0.68904054 0.2798928
-0.5306624 0.5004295 0.014580927 -0.22159082 0.67556864 0.036455005 -0.032737438 0.15024856
-0.08671495 0.37468216 0.15161446 0.36304507 0.056627765 0.1696367 0.040980086 0.28588912
0.31268102 -0.39399505 0.5311401 0.04158518 -0.046034764 -0.04837061 0.20771486 -0.15903912
0.28225234 0.28209758 0.14734374 0.38038716 0.2778001 0.14522174 0.6467257 0.6857621
-0.37416455 0.6699251 0.3124369 -0.76534754 0.6040088 0.070552215 -0.07860262 -0.14162652
-0.02813772 0.47286192 -0.016510962 0.2679786 0.009258907 0.069839865 -0.008097188 0.34054905
0.2283222 -0.27470323 0.57642984 0.20150292 -0.06019283 -0.15635918 0.23454711 -0.17215243
0.33353698 0.16164058 0.26885745 0.28374845 0.4907594 0.20749545 0.7756863 0.51378965
-0.35574386 0.8401023 0.15849943 -0.5801014 0.696989 0.31021467 0.024065878 -0.019586938
-0.18462898 0.46125877 0.18102203 0.2538651 -0.108247876 0.04556057 -0.08917202 0.20493577
0.28142184 -0.3682864 0.65320766 0.23263395 -0.038781304 -0.06064666 0.50178474 -0.013106321
0.54172266 0.25889903 0.10930336 0.34716758 0.3730975 -0.0021407462 0.5968062 0.43584144
0.012147863 0.82312274 0.30374244 -0.73912746 0.49356338 0.5455857 -0.18636413 -0.1096778
-0.16649354 0.23862736 -0.019625584 0.17618853 -0.02005159 -0.009201848 0.012982909 0.06078402
0.1681632 -0.18806158 0.44786826 0.04473198 -0.12260546 0.027422305 0.23237312 -0.20749104
0.22648786 0.16454479 0.2112957 0.27798343 0.2833428 0.037406653 0.8723996 0.39044163
-0.49975657 0.6838743 0.33019197 -0.72463346 0.67202365 0.21370794 -0.062428024 0.02648318
00000000: cc74 693d 23cf c83e 5086 92bc 1dea dc3e
00000010: e513 5fbc 4ece 683a 690d 87bc 32ae 843e
00000020: 849d 2c3e 23f1 b1be 03f3 f33e 138e cc3d
00000030: af8f 093d ab69 acbd 6a68 a73e f769 18be
00000040: f2ad 2c3e cec5 063e 07fd 023e 6398 a43e
00000050: 7b4e c93e b3fa 683d 9e9b 343f d4fd 253f
00000060: 820d c9be 65db 253f 147d 703e cbf5 1abf
00000070: 13d7 193f eb4c c03e f92b 44be c3d8 22be
00000080: af12 163c 2559 4fbd 3872 3fbd 1f28 f93d
00000090: b210 b4bc 2e6b 963d f8b0 e1bd 2602 a43d
000000a0: 1175 553e ed06 39be 597e 443e eb14 2a3e
000000b0: 4963 7b3d 3a2e 0e3d d3f2 9d3e 97c6 503c
000000c0: b8f4 823e a2d4 ba3c 43fe fe3d 1f03 5f3e
000000d0: 71f9 873e 0021 82bd 6c1f cb3e d918 1c3e
000000e0: 819f 9cbe e170 273f cbff 143e 760a 7dbe
000000f0: e151 0c3f 5ffe 34bc b35c 723d a571 b0bd
00000100: affb 90bd 2cb9 a03e f75a b03d bbd2 523e
00000110: 771d c9bd 2cf8 83bb 37cf c13d a2bf d33d
00000120: 21e3 213e f510 c1be ba0e f93e dd81 003e
00000130: 9fc3 eebd c6a1 81be 1b1f e73e 909e dfbd
00000140: 034d df3e d394 a73e 7e50 19bd 5f69 973e
00000150: bf92 cb3e 3a44 debc 6c6d 143f d580 103f
00000160: 14d9 d1be 7331 363f 8f1f 8b3e 7cfd 0ebf
00000170: 7819 203f 187d a23e ac06 b1bd 57bb b3bd
00000180: 7f07 8c3c 9ae4 3d3e 1bb4 223d 3b04 3a3e
00000190: 741f 643d be3e a4bd 7a8b d0bd 2c69 8f3d
000001a0: 4733 893e 01e2 27be eef7 7d3e 633a e1ba
000001b0: f7c0 57be a05e 793d 17bf 9b3e fff8 b8bd
000001c0: f30e 343e 84b8 313c 8afa 2fbc 7dca 803e
000001d0: f1ec 663d 2888 0abd f664 303f 1c4e 8f3e
000001e0: 7ed9 07bf 261c 003f d7e4 6e3c b4e8 62be
000001f0: 11f2 2c3f d851 153d b117 06bd c2da 193e
00000200: 9c97 b1bd 57d6 bf3e d240 1b3e 0be1 b93e
00000210: 84f2 673d 3eb5 2d3e bcda 273d 0f60 923e
00000220: ba17 a03e b8b9 c9be ccf8 073f 3955 2a3d
00000230: f38e 3cbd 4320 46bd 34b3 543e 27db 22be
00000240: 6183 903e 186f 903e 47e1 163e 1bc2 c23e
00000250: d13b 8e3e 02b5 143e d18f 253f 1b8e 2f3f
00000260: 7f92 bfbe 3680 2b3f bbf7 9f3e d1ed 43bf
00000270: 52a0 1a3f ae7d 903d 69fa a0bd 8b06 11be
00000280: 1381 e6bc f51a f23e ff41 87bc 7e34 893e
00000290: acb2 173c 3408 8f3d 11aa 04bc 725c ae3e
000002a0: 4bcd 693e e7a5 8cbe e890 133f c856 4e3e
000002b0: c28c 76bd 9f1c 20be 1e2d 703e ba48 30be
000002c0: 5cc5 aa3e 1c85 253e afa7 893e 7a47 913e
000002d0: d144 fb3e b079 543e 6193 463f b887 033f
000002e0: 0f24 b6be f210 573f ad4d 223e 8681 14bf
000002f0: df6d 323f 75d4 9e3e ce25 c53c c974 a0bc
00000300: 610f 3dbe 1c2a ec3e d75d 393e 9bfa 813e
00000310: 10b1 ddbd b89d 3a3d d29f b6bd afda 513e
00000320: 8616 903e 0990 bcbe 9e38 273f 9837 6e3e
00000330: 25d9 1ebd a268 78bd f774 003f e5bb 56bc
00000340: 56ae 0a3f 6a8e 843e 71da df3d f3bf b13e
00000350: a306 bf3e c34b 0cbb 4bc8 183f 9c26 df3e
00000360: d507 473c 2cb8 523f 2184 9b3e 7537 3dbf
00000370: 57b4 fc3e 81ab 0b3f 3dd6 3ebe c19e e0bd
00000380: 487d 2abe bb5a 743e d5c5 a0bc c46a 343e
00000390: 3b43 a4bc 59c3 16bc 44b6 543c aaf8 783d
000003a0: f932 2c3e 3793 40be fd4e e53e e138 373d
000003b0: 9218 fbbd bea4 e03c 38f3 6d3e 8878 54be
000003c0: 6fec 673e 6e7e 283e e65d 583e d853 8e3e
000003d0: 4f12 913e b837 193d 9555 5f3f f7e7 c73e
000003e0: 18e0 ffbe 6312 2f3f ec0e a93e 9481 39bf
000003f0: be09 2c3f 41d6 5a3e 87b4 7fbd 41f3 d83c

while/MatMul f4 [128, 32]
0.083612144 0.17233095 -0.12497502 -0.031290244 0.071203604 -0.0059784367 0.300201 0.079951644
0.10020288 0.048746232 0.2492639 -0.23448436 -0.050553225 -0.21998103 0.22382152 -0.12856843
0.054688 -0.21233185 0.011156979 -0.30007246 -0.31826946 0.038752753 -0.10670459 0.031648513
-0.025775261 -0.05761682 0.09413677 -0.06640151 -0.15009917 -0.07044585 -0.00719807 -0.03326299
0.20700668 0.12336806 0.05834394 0.5401255 -0.20567349 -0.35985884 -0.26027513 -0.4246222
0.18445593 0.0051200213 0.23596306 -0.31476927 0.42733893 -0.2545341 0.014585171 -0.080982536
-0.018736241 -0.204166 -0.1841123 -0.13044669 -0.08612318 0.0016051487 -0.53731185 0.54704726
0.49855036 0.042210236 0.039147414 -0.6941002 -0.2116586 -0.1367182 -0.09854848 -0.35936114
0.042642046 -0.030630203 -0.20028995 0.2494567 -0.1103855 -0.30781677 0.17090271 -0.08087459
-0.08237343 -0.12090976 0.03700535 -0.17787388 0.30410156 -0.14116585 0.031000156 0.11542441
-0.26191595 -0.011082195 -0.21480419 -0.17109574 -0.2246078 0.04661127 -0.44449398 0.38468674
0.1708298 0.28922415 -0.09131414 -0.35970128 0.073558554 0.079499826 -0.033042092 -0.24567194
0.11699827 0.16718341 0.1895251 0.34112298 -0.009811811 -0.010328835 -0.13625954 -0.1601152
0.3827161 0.0674292 -0.05756343 -0.22742681 0.596819 0.0615262 0.3091512 0.065774485
-0.2936617 0.04451942 0.12882987 -0.293813 -0.20008446 0.108986884 -0.33782044 0.36411315
0.29404348 0.13031606 0.12646735 -0.42696428 0.026383832 -0.061616335 0.04344202 -0.016261254
-0.025260877 0.10485696 -0.07627822 0.13485074 -0.10816435 -0.31136808 -0.05551145 -0.164644
0.18867953 0.065919675 0.020103522 -0.012150577 0.16703343 -0.187598 -0.112477705 0.10869375
0.0769786 -0.07185405 0.078431465 -0.06539469 -0.11479611 0.0048406296 -0.057065416 0.23690496
-0.029751122 0.051593166 -0.0043513454 -0.27116886 0.12088184 -0.15293053 -0.10921433 -0.13275182
-0.006018912 -0.08346932 0.12387206 0.33774212 -0.21681035 -0.22470525 -0.1778598 -0.03281703
0.22901976 -0.15342696 -0.042608418 0.011959248 0.19407678 -0.20809478 0.15469305 -0.056275934
-0.35434148 -0.15911882 -0.22372316 -0.10114247 0.17386255 -0.010476342 -0.040145677 0.1500068
0.19277939 0.2672633 -0.009976887 -0.56590414 0.018029312 0.013878872 0.23917569 0.089612186
0.05108967 0.29821846 -0.25731108 0.053227298 0.017835531 -0.23242071 0.17983434 -0.10134362
0.2015183 -0.38721213 0.27260014 -0.012185528 0.27756622 -0.3029565 -0.0015857822 -0.023924183
-0.25057867 -0.027945457 0.032597784 -0.13545215 -0.034348585 -0.024600431 -0.1683397 0.18677306
0.19964889 0.091464475 0.06797937 -0.3608858 -0.18622053 -0.23375589 0.30215788 -0.10730095
0.107267104 0.1870618 0.09404624 0.19566648 0.00791244 -0.1944295 0.03678201 -0.083866164
0.010288433 -0.16378741 -0.10904016 0.012445026 0.31429234 0.02739862 0.2879108 0.06912412
-0.028879536 0.10830431 -0.076656155 -0.31423846 -0.036350463 -0.05101299 -0.2952365 0.3364332
0.20683916 -0.054841977 -0.522565 -0.50518787 -0.10040108 -0.042660683 -0.019088503 -0.14653604
00000000: d83c ab3d 8677 303e e7f2 ffbd 332a 00bd
00000010: 32d3 913d c3e6 c3bb f2b3 993e b0bd a33d
00000020: 2b37 cd3d 21aa 473d 093f 7f3e ab1c 70be
00000030: e610 4fbd b542 61be 7831 653e 71a7 03be
00000040: 8600 603d 856d 59be c3cb 363c 19a3 99be
00000050: 37f4 a2be 35bb 1e3d f087 dabd dfa1 013d
00000060: a426 d3bc 9dff 6bbd c7ca c03d 84fd 87bd
00000070: 99b3 19be ea45 90bd cadd ebbb c63e 08bd
00000080: 8ff9 533e 65a8 fc3d 0efa 6e3d aa45 0a3f
00000090: 129c 52be 6b3f b8be c842 85be 1568 d9be
000000a0: 04e2 3c3e dac5 a73b 4da0 713e 7029 a1be
000000b0: 2bcc da3e 4b52 82be a4f6 6e3c 2cda a5bd
000000c0: bf7c 99bc e410 51be ef87 3cbe d193 05be
000000d0: 5a61 b0bd da63 d23a 458d 09bf 4a0b 0c3f
000000e0: fe41 ff3e a4e4 2c3d 0a59 203d 8db0 31bf
000000f0: 08bd 58be dbff 0bbe c9d3 c9bd 2ffe b7be
00000100: 6da9 2e3d 31ec fabc cf18 4dbe 9471 7f3e
00000110: cb11 e2bd 299a 9dbe 1f01 2f3e 94a1 a5bd
00000120: 67b3 a8bd 899f f7bd ec92 173d 9224 36be
00000130: 33b3 9b3e c88d 10be 0af4 fd3c a263 ec3d
00000140: d919 86be 1892 35bc a1f5 5bbe b933 2fbe
00000150: 96ff 65be 76eb 3e3d b794 e3be a9f5 c43e
00000160: 02ee 2e3e 3015 943e e802 bbbd c42a b8be
00000170: dea5 963d ced0 a23d 2557 07bd 6d91 7bbe
00000180: ca9c ef3d 2132 2b3e de12 423e aca7 ae3e
00000190: b8c1 20bc 463a 29bc 9f87 0bbe 3df5 23be
000001a0: 5df3 c33e 5218 8a3d a2c7 6bbd 93e2 68be
000001b0: 21c9 183f e602 7c3d 1149 9e3e c6b4 863d
000001c0: d45a 96be ff59 363d faeb 033e a86e 96be
000001d0: f1e2 4cbe 8434 df3d cdf6 acbe 0a6d ba3e
000001e0: de8c 963e 9371 053e a880 013e 109b dabe
000001f0: e822 d83c 6961 7cbd 42f0 313d 5236 85bc
00000200: e6ef cebc 3fbf d63d c137 9cbd 5016 0a3e
00000210: 4585 ddbd a36b 9fbe f95f 63bd 7098 28be
00000220: 3535 413e e500 873d 24b0 a43c 3713 47bc
00000230: d00a 2b3e b119 40be b65a e6bd d49a de3d
00000240: f5a6 9d3d 3728 93bd ada0 a03d a7ed 85bd
00000250: 391a ebbd 259e 9e3b 6dbd 69bd 3797 723e
00000260: a0b8 f3bc 5b53 533d bb95 8ebb a5d6 8abe
00000270: e690 f73d d299 1cbe c3ab dfbd 18f0 07be
00000280: 4b3a c5bb f6f1 aabd a2b0 fd3d 89ec ac3e
00000290: 8803 5ebe 2219 66be e120 36be 266b 06bd
000002a0: 2884 6a3e f51b 1dbe 2a86 2ebd b9f0 433c
000002b0: 10bc 463e cc16 55be db67 1e3e 9881 66bd
000002c0: 3f6c b5be 0bf0 22be af17 65be c923 cfbd
000002d0: 0609 323e f7a4 2bbc cb6f 24bd 629b 193e
000002e0: f667 453e bcd6 883e 1976 23bc 18df 10bf
000002f0: 35b2 933c 3564 633c 79ea 743e 9886 b73d
00000300: 6743 513d 17b0 983e 47be 83be de04 5a3d
00000310: d21b 923c b2ff 6dbe 7e26 383e 3e8d cfbd
00000320: d05a 4e3e ab40 c6be 3f92 8b3e cfa5 47bc
00000330: 291d 8e3e 1d1d 9bbe 05da cfba a6fc c3bc
00000340: d94b 80be dfed e4bc 4185 053d f8b3 0abe
00000350: 1ab1 0cbd d886 c9bc 3e61 2cbe 7041 3f3e
00000360: c270 4c3e ba51 bb3d c538 8b3d 06c6 b8be
00000370: 98b0 3ebe b45d 6fbe 70b4 9a3e 9ac0 dbbd
00000380: dbae db3d 218d 3f3e 519b c03d cb5c 483e
00000390: 2ea3 013c 8718 47be bca8 163d 06c2 abbd
000003a0: d190 283c e3b7 27be 7350 dfbd 39e6 4b3c
000003b0: edea a03e 1273 e03c 0b69 933e f290 8d3d
000003c0: c794 ecbc a6ce dd3d e7fd 9cbd dde3 a0be
000003d0: 39e4 14bd fff2 50bd 3d29 97be f940 ac3e
000003e0: a5cd 533e fba1 60bd d2c6 05bf fe53 01bf
000003f0: 159f cdbd f8bc 2ebd 7e5f 9cbc 8b0d 16be
